data.pth (torch, 37255 bytes, 10 tensors)

l1.weight f4 [32, 138]
-0.110778965 0.12393646 0.12001046 0.014395391 0.1539833 0.017113855 0.008054045 0.08333666
0.10599163 0.09015522 0.10473914 0.029695397 0.0582951 -0.085417934 -0.019415619 0.00798691
0.19349134 0.06880938 0.1456004 0.043542832 -0.025284695 0.06732774 -0.0026208416 -0.06322526
0.23233825 0.034163237 0.063413166 0.06573562 -0.06447802 0.103152566 0.06801419 0.119094506
0.0448495 0.0056140344 -0.18954353 0.058309287 0.26714137 -0.028042888 0.06358462 0.08632936
0.16872497 0.108367555 0.28694338 0.12574366 0.16246629 0.025605237 -0.128851 0.07759387
0.112745054 0.017988034 0.028634155 -0.13293575 0.13099651 -0.123248376 -0.1394908 0.1798563
0.06916891 0.05114062 -0.15607345 0.1658556 0.104599334 -0.028963188 -0.07341659 -0.0859661
0.2616058 0.03267107 -0.05548929 -0.023933498 0.100633845 0.12840305 0.030647466 0.031903703
0.06994511 -0.13659503 -0.0076779 0.049659632 0.10260106 0.013549303 0.018849365 0.05116294
0.086632274 0.045828998 -0.115199715 0.050108112 0.056105502 -0.024583973 -0.028042061 -0.0678297
0.093394145 0.018391369 -0.0026899513 -0.049895093 -0.0006809291 -0.007456755 0.0071292426 -0.13816257
-0.14071326 -0.07499258 0.20595425 0.065155946 -0.12089655 -0.11176174 0.0855447 -0.12228778
-0.0750909 -0.14317326 0.16227192 0.039388224 -0.028374754 0.0010046319 0.020047158 -0.17702204
-0.14022538 0.0029847266 -0.20253108 0.09984667 0.16193908 0.13145995 -0.11785222 -0.085771285
-0.16689935 -0.08327589 -0.13542111 0.14386936 0.031918988 0.207491 -0.13089508 0.14858784
-0.13086732 0.03426615 0.09747632 -0.066403896 0.029428571 -0.12278187 0.051042214 -0.15609749
0.08421848 -0.02004666 0.22258642 0.21541674 -0.11525722 0.060060088 0.046749245 0.17661832
0.13254529 0.11114798 0.23381336 -0.024959989 0.19793978 -0.053141814 0.10439335 0.08060562
0.06400924 0.18476303 0.19674706 0.10831266 0.2045405 -0.11031542 -0.037272803 0.0714378
0.051930413 0.08365552 0.20549291 0.0031475474 0.23332316 0.14355317 -0.18301879 0.08586552
0.14095755 0.022116708 0.073464714 -0.09180501 0.23038724 0.16567369 0.23899975 -0.052593417
0.21788137 0.034478217 -0.061231032 0.16689749 0.2632374 0.12434174 -0.020569595 -0.0469213
-0.110016085 0.19649278 -0.007730217 -0.043809637 0.11988154 -0.14840041 -0.058920108 -0.23842117
-0.22435206 -0.0961892 -0.06399836 -0.0436282 -0.22808401 0.09920933 0.083253674 -0.044071827
0.12021567 0.08358083 0.18764696 0.31501296 0.1357057 0.11045586 0.20154932 0.2357994
0.115192495 -0.07524416 0.15113088 -0.009588327 0.19464797 -0.023395702 0.2932849 -0.03674574
-0.0003489895 -0.030049969 0.0057106083 -0.1859226 -0.12540306 -0.086965166 0.22358699 -0.1376183
-0.06503887 -0.09790602 0.12708732 0.17379116 0.04363434 0.10176517 0.047753654 0.029178396
0.006811292 -0.14365901 -0.11844022 -0.10535519 0.09886955 0.22459708 -0.010389396 -0.05787932
0.14496788 0.17346512 -0.08860094 0.1127274 0.11508235 0.17061183 -0.017004818 -0.09911627
-0.01704563 0.26582122 0.12097092 0.1066881 -0.10382449 0.17669569 -0.3814235 -0.029882686
00000000: 15e0 e2bd 66d2 fd3d 0bc8 f53d a5da 6b3c
00000010: ccad 1d3e 5b32 8c3c 1df5 033c 69ac aa3d
00000020: 2412 d93d 4da3 b83d 7981 d63d c343 f33c
00000030: d8c6 6e3d 99ef aebd 810d 9fbc 87db 023c
00000040: 9822 463e efeb 8c3d 4518 153e f859 323d
00000050: d921 cfbc 20e3 893d 6dc2 2bbb 3f7c 81bd
00000060: 14ea 6d3e c0ee 0b3d c3de 813d 66a0 863d
00000070: 0d0d 84bd a741 d33d 064b 8b3d d2e7 f33d
00000080: 1cb4 373d eff5 b73b b317 42be b8d5 6e3d
00000090: c1c6 883e 33ba e5bc a738 823d 73cd b03d
000000a0: 3dc6 2c3e cfef dd3d 3eea 923e f2c2 003e
000000b0: 905d 263e 13c2 d13c 84f1 03be 89e9 9e3d
000000c0: e1e6 e63d a45b 933c 2d92 ea3c 4f20 08be
000000d0: f323 063e a569 fcbd add6 0ebe 402c 383e
000000e0: 6ea8 8d3d d478 513d b8d1 1fbe 0dd6 293e
000000f0: 2d38 d63d 3544 edbc 705b 96bd ff0e b0bd
00000100: 32f1 853e 1ad2 053d bd48 63bd 2f10 c4bc
00000110: 1e19 ce3d 177c 033e 6510 fb3c 75ad 023d
00000120: 623f 8f3d 91df 0bbe e596 fbbb e667 4b3d
00000130: 8120 d23d e5fd 5d3c fc69 9a3c 3b90 513d
00000140: 436c b13d 30b7 3b3d d4ed ebbd 2a3e 4d3d
00000150: e2ce 653d 5464 c9bc 77b8 e5bc 4cea 8abd
00000160: 6e45 bf3d 7fa9 963c e549 30bb cc5e 4cbd
00000170: 6180 32ba cb57 f4bb 6c9c e93b 7d7a 0dbe
00000180: 2317 10be b695 99bd ace5 523e 7b70 853d
00000190: 9c98 f7bd 57e3 e4bd 0f32 af3d 0472 fabd
000001a0: 42c9 99bd 039c 12be 9c2a 263e 8c55 213d
000001b0: 2c72 e8bc daad 833a f039 a43c 4445 35be
000001c0: 3e97 0fbe 679b 433b 4f64 4fbe 697c cc3d
000001d0: 5cd3 253e 709d 063e 815c f1bd dba8 afbd
000001e0: aae7 2abe 8d8c aabd d5ab 0abe 7d52 133e
000001f0: 7cbd 023d 8578 543e 5c09 06be 6927 183e
00000200: 1502 06be aa5a 0c3d aaa1 c73d c4fe 87bd
00000210: 3014 f13c 1075 fbbd a411 513d 05d8 1fbe
00000220: bd7a ac3d e538 a4bc b2ed 633e 3596 5c3e
00000230: fa0b ecbd 9101 763d 237c 3f3d 6fdb 343e
00000240: f4b9 073e 8da1 e33d c56c 6f3e e478 ccbc
00000250: bab0 4a3e 3bab 59bd 2ecc d53d 8f14 a53d
00000260: 4717 833d 8532 3d3e 1078 493e 07d3 dd3d
00000270: 1173 513e 0ded e1bd 5eab 18bd fb4d 923d
00000280: fcb4 543d 9653 ab3d bc6c 523e 1547 4e3b
00000290: 44ec 6e3e 9aff 123e 4769 3bbe 43da af3d
000002a0: 2d57 103e 192e b53c ab74 963d 4404 bcbd
000002b0: a2ea 6b3e 5da6 293e 5abc 743e 326c 57bd
000002c0: 4b1c 5f3e 0839 0d3d 64cd 7abd 2de7 2a3e
000002d0: 0dc7 863e e2a6 fe3d 9181 a8bc 8d30 40bd
000002e0: 1d50 e1bd 6735 493e c34d fdbb bc71 33bd
000002f0: 7484 f53d 47f6 17be 3656 71bd ae24 74be
00000300: 8cbc 65be d8fe c4bd 9211 83bd 7cb3 32bd
00000310: db8e 69be 432e cb3d e780 aa3d a984 34bd
00000320: a233 f63d 6d2c ab3d 8626 403e 6149 a13e
00000330: 6ff6 0a3e af36 e23d f262 4e3e 6675 713e
00000340: 0bea eb3d 9c19 9abd 0ec2 1a3e 5c18 1dbc
00000350: cc51 473e 58a8 bfbc 7029 963e b382 16bd
00000360: 94f8 b6b9 5a2b f6bc 0e20 bb3b 7e62 3ebe
00000370: a969 00be cb1a b2bd fdf3 643e d0eb 0cbe
00000380: 1933 85bd f482 c8bd 2e23 023e 4ff6 313e
00000390: ecb9 323d 426a d03d 5699 433d 8807 ef3c
000003a0: 4231 df3b 591b 13be c990 f2bd 76c4 d7bd
000003b0: 1e7c ca3d c7fc 653e 4938 2abc de12 6dbd
000003c0: 7672 143e d7a0 313e 6974 b5bd a0dd e63d
000003d0: 4cb0 eb3d deb4 2e3e b04d 8bbc 79fd cabd
000003e0: 47a3 8bbc b819 883e 9abf f73d 4a7f da3d
000003f0: efa1 d4bd b7ef 343e f149 c3be 89cc f4bc

l1.bias f4 [32]
0.15608908 0.3250607 0.19940008 0.24676877 0.2230566 0.33870533 0.36087856 0.29027653
0.20209825 0.17738768 0.30996814 0.31771678 0.17741555 0.22323667 0.25435838 0.12218296
0.2300355 0.07396858 0.2991088 0.21203436 0.20230831 0.25932497 0.15388338 0.42610738
0.18589371 0.20469354 0.22826101 0.2858988 0.4278698 0.21073957 0.18641806 0.26037747
00000000: d1d5 1f3e 5b6e a63e 892f 4c3e f4b0 7c3e
00000010: f368 643e c96a ad3e 13c5 b83e 209f 943e
00000020: d8f2 4e3e 1ea5 353e 25b4 9e3e c6ab a23e
00000030: 6cac 353e 2798 643e 433b 823e 0f3b fa3d
00000040: 6d8e 6b3e d77c 973d ca24 993e 891f 593e
00000050: e929 4f3e 3ec6 843e 9b93 1d3e bf2a da3e
00000060: ec5a 3e3e 2f9b 513e 41bd 693e 5461 923e
00000070: c011 db3e 1dcc 573e 60e4 3e3e 3250 853e

l2.weight f4 [32, 32]
-0.1881369 -0.080058165 0.06724545 0.09804889 0.43798563 0.24247794 -0.107172646 0.03664686
0.2119448 0.114295036 0.14363684 0.3079141 0.35444912 0.18482007 0.3559543 -0.20524842
-0.004020036 -0.029999139 -0.16690442 0.13370687 0.047623914 0.5457194 -0.19410253 0.35713455
-0.23110746 -0.24961054 0.12259113 0.22678831 0.13217446 0.40706158 0.43879667 -0.22677048
0.048623007 0.25774813 0.056902453 -0.113550775 -0.14644818 0.23077437 0.36242154 0.3655966
-0.39060673 0.502246 0.09957508 0.17472553 -0.057694215 -0.43475205 0.49507904 0.004497546
-0.3373467 0.3057178 -0.078351766 -0.09140073 0.53564847 0.060178377 -0.06450928 0.08686292
0.0024815882 -0.06016209 0.059806034 -0.28262556 0.38813013 -0.10629322 0.36092374 0.107319154
0.47469848 0.40905923 0.5089031 0.09988639 -0.023490021 -0.004995681 0.1504451 0.12155864
-0.103084594 -0.0913635 0.3278373 0.09174273 -0.2743255 0.21139285 -0.07222959 0.26462352
0.28671676 -0.38771412 0.41597465 0.4694706 0.16420907 -0.23144902 0.15013942 0.038014706
0.39032084 0.48110497 -0.1253522 0.20594911 0.11224536 -0.035568044 -0.42168903 0.3998299
0.08929442 0.49177858 -0.16110297 -0.02236014 -0.10984868 -0.101331934 0.2961515 0.23927729
0.060185477 0.37357104 0.15467866 -0.06550221 0.45278355 -0.11650723 0.4357683 0.2279504
-0.1219661 0.5336648 -0.29657137 -0.14638752 0.09372532 -0.036266796 0.32525393 0.25973016
-0.06764945 -0.20965664 0.37424913 0.119111896 0.07465538 -0.11244661 0.35033265 0.029819166
-0.10210354 0.14168271 0.085148536 0.21208945 -0.041810777 0.002642725 0.21435721 0.095458075
0.33482096 0.18757603 -0.16723497 0.10619224 0.52241385 0.22941177 0.18782376 0.30883574
0.18054257 0.45057762 -0.03789273 -0.36681667 0.10221853 0.42239755 0.23862986 0.17749155
-0.34765673 -0.38149032 0.50767887 0.18740138 0.018046983 0.10708838 0.2745365 -0.2723482
0.44277856 0.49186477 0.17928259 0.049989592 -0.16952851 -0.35069406 0.47883704 0.30712017
0.31434757 -0.007581056 0.094775274 -0.10133846 -0.21844962 0.37135237 0.19765238 0.4882303
0.3943072 0.26381117 -0.01446652 0.24063356 0.19068083 -0.4685284 0.323178 0.33780962
0.2094706 0.3156897 0.141911 -0.0022552775 0.2815659 -0.42561907 -0.24425483 0.500263
-0.23481728 0.17295495 0.016748067 0.051480517 0.14665131 0.3119567 -0.066449456 0.32848492
0.42895672 0.22683477 0.005031091 -0.012011584 0.33114955 0.332652 0.3942113 0.115753196
0.09093756 0.51738375 -0.26134393 -0.33936438 0.09363298 0.2129245 0.20593813 0.38609478
-0.24819116 -0.42605484 0.459975 0.36674398 0.08191567 0.3051949 0.37817612 -0.2355072
0.062727004 0.009271456 0.11236564 0.3576593 0.3551331 0.038218364 -0.21094796 -0.23818333
0.5193737 -0.4430759 -0.117075704 0.03140609 0.42698252 0.38168424 -0.24162488 0.37082687
0.53263134 0.14976549 0.10945196 0.14305726 -0.21669436 0.4044742 0.4173257 0.028332433
0.20575093 -0.11442341 0.4468546 0.40543646 0.050959777 -0.15794621 0.17277592 0.15702333
00000000: f6a6 40be 89f5 a3bd fcb7 893d dbcd c83d
00000010: a73f e03e 234c 783e 557d dbbd 051b 163d
00000020: 0f08 593e 8413 ea3d 8915 133e eba6 9d3e
00000030: 5b7a b53e 7941 3d3e a43f b63e a42c 52be
00000040: 82ba 83bb c1c0 f5bc fee8 2abe 74ea 083e
00000050: 4b11 433d 44b4 0b3f d0c2 46be 57da b63e
00000060: 6fa7 6cbe e899 7fbe 0f11 fb3d 323b 683e
00000070: be58 073e 606a d03e f5a9 e03e 8536 68be
00000080: eb28 473d 90f7 833e 8c12 693d 4f8d e8bd
00000090: 83f6 15be 1e50 6c3e 518f b93e 7a2f bb3e
000000a0: 9bfd c7be 3293 003f 05ee cb3d 40eb 323e
000000b0: c550 6cbd d297 debe 007b fd3e 2660 933b
000000c0: b5b8 acbe 0b87 9c3e e476 a0bd 4e30 bbbd
000000d0: 4220 093f 9a7d 763d 711d 84bd 30e5 b13d
000000e0: 24a2 223b 866c 76bd 2cf7 743d 4cb4 90be
000000f0: feb8 c63e 42b0 d9bd ffca b83e 25ca db3d
00000100: ae0b f33e 3670 d13e 7947 023f 3c91 cc3d
00000110: 256e c0bc cfb2 a3bb 480e 1a3e bcf3 f83d
00000120: 041e d3bd c91c bbbd 4ada a73e 9de3 bb3d
00000130: 6474 8cbe 5e77 583e 1bed 93bd bc7c 873e
00000140: 8acc 923e 7782 c6be a1fa d43e 735e f03e
00000150: 6c26 283e f900 6dbe 26be 193e 4fb5 1b3d
00000160: 22d8 c73e 6453 f63e 545c 00be 53e4 523e
00000170: e5e0 e53d ccaf 11bd a0e7 d7be 81b6 cc3e
00000180: fedf b63d 67ca fb3e 2df8 24be 9d2c b7bc
00000190: 58f8 e0bd 1e87 cfbd 2ba1 973e 1b05 753e
000001a0: 0c85 763d b444 bf3e 1564 1e3e 0626 86bd
000001b0: 3fd3 e73e 589b eebd 061d df3e d46b 693e
000001c0: 5dc9 f9bd 429e 083f 34d8 97be 9ce6 15be
000001d0: 10f3 bf3d 7e8c 14bd af87 a63e 5afb 843e
000001e0: cb8b 8abd 3bb0 56be 959d bf3e f0f0 f33d
000001f0: ebe4 983d 694a e6bd cd5e b33e 5347 f43c
00000200: a91b d1bd 4615 113e 5b62 ae3d fa2d 593e
00000210: c741 2bbd 9131 2d3b 7580 5b3e 867f c33d
00000220: a76d ab3e ee13 403e a53f 2bbe 517b d93d
00000230: eabc 053f ebea 6a3e df54 403e b81f 9e3e
00000240: 27e0 383e 1cb2 e63e 6835 1bbd 65cf bbbe
00000250: f357 d13d 7e44 d83e 635b 743e 58c0 353e
00000260: 1000 b2be b352 c3be 3ef7 013f 26e6 3f3e
00000270: 44d7 933c 2751 db3d 0c90 8c3e 3971 8bbe
00000280: dfb3 e23e b3d5 fb3e db95 373e e3c1 4c3d
00000290: e298 2dbe 2c8e b3be 212a f53e db3e 9d3e
000002a0: 2af2 a03e 826a f8bb 8a19 c23d 8a8a cfbd
000002b0: 42b1 5fbe e621 be3e 6365 4a3e 52f9 f93e
000002c0: a2e2 c93e 4212 873e fc04 6dbc a568 763e
000002d0: d641 433e f4e2 efbe 9677 a53e 62f5 ac3e
000002e0: 767f 563e 15a2 a13e 1e51 113e 47cd 13bb
000002f0: 6829 903e beea d9be f01d 7abe 3c11 003f
00000300: f173 70be 1a1b 313e 3e33 893c 3cdd 523d
00000310: c32b 163e cab8 9f3e a716 88bd 2d2f a83e
00000320: 37a0 db3e 6047 683e dadb a43b 3ccc 44bc
00000330: 6f8c a93e 5d51 aa3e 10d6 c93e 0310 ed3d
00000340: 793d ba3d 4373 043f dfce 85be 2bc1 adbe
00000350: a6c2 bf3d e108 5a3e 72e1 523e 37ae c53e
00000360: d325 7ebe dc23 dabe d881 eb3e dec5 bb3e
00000370: 67c3 a73d 8242 9c3e 4da0 c13e cd28 71be
00000380: 0477 803d 4ee7 173c f51f e63d 1f1f b73e
00000390: 01d4 b53e dc8a 1c3d be02 58be 55e6 73be
000003a0: adf5 043f d8da e2be 63c5 efbd aca3 003d
000003b0: 749d da3e 1e6c c33e 836c 77be 05dd bd3e
000003c0: 875a 083f 205c 193e 5928 e03d 9a7d 123e
000003d0: 20e5 5dbe 3e17 cf3e b7ab d53e 6b19 e83c
000003e0: 5fb0 523e d256 eabd 20ca e43e 5e95 cf3e
000003f0: 33bb 503d a7bc 21be 2cec 303e b9ca 203e

l2.bias f4 [32]
0.14526276 0.028307594 0.27414778 0.061248157 0.041326392 0.20333834 0.1321841 0.09112559
0.22639295 -0.01363988 0.10515348 0.08474128 0.30737945 -0.014418945 0.33050942 0.35576445
-0.056169093 -0.004582824 0.25062037 0.08689292 -0.059938252 0.036223114 0.2200568 0.016384907
0.077177 0.05485804 0.33566886 0.3370999 -0.1589948 0.13773216 -0.053234883 -0.06147658
00000000: c3bf 143e 54e5 e73c 195d 8c3e 59df 7a3d
00000010: dd45 293d ed37 503e 455b 073e 0ea0 ba3d
00000020: 8ed3 673e ce79 5fbc b55a d73d d68c ad3d
00000030: d760 9d3e 703d 6cbc 8838 a93e c226 b63e
00000040: 9011 66bd 842b 96bb 5051 803e eaf4 b13d
00000050: d081 75bd b05e 143d 9256 613e a439 863c
00000060: fa0e 9e3d d3b2 603d cadc ab3e 5c98 ac3e
00000070: 88cf 22be a909 0d3e d20c 5abd dece 7bbd

l3.weight f4 [32, 32]
0.17395858 0.4192753 -0.15596774 0.42324063 0.055969 -0.16252734 0.25649193 -0.28206253
0.27049187 -0.0014567568 0.4491252 0.44386044 -0.09743273 0.24324769 0.1012064 0.25393388
-0.06950275 0.10673975 0.15255663 -0.2040622 0.109353535 0.34588704 -0.19663861 -0.012896563
-0.016530978 0.2301706 0.39851493 -0.06883053 0.007450208 -0.012836904 -0.11293539 0.2837587
-0.112493776 -0.056865834 0.012551442 -0.05827067 -0.103474766 0.10244919 -0.12268983 -0.043426707
0.1448371 -0.156775 0.16032882 -0.16657288 -0.051230162 0.014729336 0.06585488 -0.11983736
-0.12498273 -0.01602082 -0.05269534 0.122964725 -0.13041154 -0.1087572 -0.11984262 0.003700152
0.044643015 -0.039754868 0.0036979914 -0.12401305 -0.14650314 0.07692535 -0.052364737 -0.011795983
-0.44175774 -0.009769585 0.34207442 0.122182466 0.25991318 0.52975094 0.23180275 0.18655537
-0.18487297 0.05403001 0.041683342 -0.20455354 0.11966739 -0.0063346773 -0.1336706 0.1495831
0.092732176 0.3979912 0.32286802 -0.002397176 0.05698277 0.24521667 0.08215134 0.47329593
0.3302184 -0.194624 0.009386165 0.18205057 -0.15341023 0.38544208 0.13342662 -0.29470557
-0.13419269 -0.4175305 0.32720286 -0.23388304 -0.022991719 0.39148858 0.14364229 0.38498852
-0.11929971 -0.06791105 -0.29463774 -0.046381734 0.20622873 -0.23205745 0.12008118 -0.149626
-0.16850917 0.17887275 0.11268154 0.27450043 0.10781637 -0.14910212 0.3036495 0.26828644
0.41476703 0.29021055 0.1725962 0.32692048 0.026609078 0.4249924 -0.11470553 -0.26403165
0.31222972 0.18134397 0.015927615 -0.10896185 0.2237109 -0.045044407 0.10637101 0.1860011
0.0338228 -0.09471823 -0.023230474 0.26482466 0.3982617 0.3684284 0.42360651 0.28754616
0.10509753 0.10613475 0.01369425 -0.2754505 -0.15065888 -0.08663257 -0.25470087 0.07221993
0.2448634 0.34772936 0.17747101 0.19018309 -0.15905423 0.45535132 0.08306061 0.26651245
-0.37720996 0.06965505 0.46872836 0.20620158 -0.036357723 0.3501087 -0.20874259 0.28176636
-0.22193302 -0.13929741 0.05365419 -0.027566323 0.38921675 0.18395291 0.10113848 -0.062556885
-0.0103780925 0.2848653 0.24019165 -0.32180917 -0.040228024 -0.028124021 -0.44918257 0.35662234
0.24527527 0.21452203 0.2544568 0.18434927 -0.045798257 0.23520556 -0.07462612 0.47685713
-0.36980674 0.21279103 0.28742492 -0.19047791 -0.46246365 0.36877915 -0.39475295 -0.25261664
0.26059562 -0.16987483 0.3616454 0.12073079 0.29585844 0.06787787 -0.041410487 0.38416252
0.07351854 0.10568134 0.3665992 0.19413818 -0.055679105 0.18636277 0.28261393 -0.24432077
0.28307822 -0.18412754 0.1892623 0.4217468 0.07967739 -0.056404408 0.16428934 0.0893936
0.20466566 -0.03505703 0.15432458 -0.4278663 -0.2343496 -0.265206 -0.2505101 0.16818984
-0.08458972 -0.15221575 -0.23084497 0.31438535 0.3363116 0.0654454 0.20530728 0.081916064
0.11286609 -0.03398953 0.25456834 -0.017222797 -0.1722573 -0.31089064 0.37496158 -0.027773816
0.20451833 0.4949142 0.22166736 0.37512538 0.05278273 0.06593121 -0.12240555 0.37497973
00000000: 3322 323e 41ab d63e 02b6 1fbe ffb2 d83e
00000010: c03f 653d 916d 26be e952 833e 806a 90be
00000020: e97d 8a3e a6f0 beba bdf3 e53e ad41 e33e
00000030: d08a c7bd ec15 793e 4d45 cf3d 9f03 823e
00000040: 7557 8ebd 5f9a da3d ce37 1c3e aef5 50be
00000050: bff4 df3d 1b18 b13e a25b 49be 1b4c 53bc
00000060: f96b 87bc d7b1 6b3e 260a cc3e 05f7 8cbd
00000070: e020 f43b e151 52bc ab4a e7bd d248 913e
00000080: 2363 e6bd 26ec 68bd 90a4 4d3c 3aad 6ebd
00000090: 94ea d3bd e2d0 d13d ce44 fbbd 34e0 31bd
000000a0: 2d50 143e a089 20be 3d2d 243e 1592 2abe
000000b0: b8d6 51bd 5053 713c ecde 863d 4a6d f5bd
000000c0: f2f6 ffbd 183e 83bc 12d7 57bd eed4 fb3d
000000d0: 9a8a 05be 18bc debd 0c70 f5bd 407e 723b
000000e0: 98db 363d 00d6 22bd 005a 723b 8efa fdbd
000000f0: eb04 16be 0a8b 9d3d 687c 56bd f043 41bc
00000100: 122e e2be 9c10 20bc 6124 af3e cd3a fa3d
00000110: 5713 853e c29d 073f b35d 6d3e 5f08 3f3e
00000120: 574f 3dbe 924e 5d3d 27bc 2a3d 7c76 51be
00000130: 2d14 f53d 2093 cfbb f2e0 08be 502c 193e
00000140: 5eea bd3d 81c5 cb3e f54e a53e f119 1dbb
00000150: c466 693d 141a 7b3e f63e a83d d853 f23e
00000160: 6312 a93e 844b 47be 6ec8 193c 776b 3a3e
00000170: 9217 1dbe aa58 c53e fda0 083e a6e3 96be
00000180: cf69 09be 8fc6 d5be 2287 a73e 097f 6fbe
00000190: 2159 bcbc 3171 c83e f716 133e 371d c53e
000001a0: 6853 f4bd f314 8bbd c2da 96be c6fa 3dbd
000001b0: a02d 533e 78a0 6dbe 1fed f53d 8f37 19be
000001c0: ab8d 2cbe 6b2a 373e 94c5 e63d 528b 8c3e
000001d0: d4ce dc3d 3aae 18be f277 9b3e d75c 893e
000001e0: 585c d43e 7a96 943e 0fbd 303e 1f62 a73e
000001f0: 48fb d93c 9b98 d93e bcea eabd 282f 87be
00000200: 93dc 9f3e 3cb2 393e a17a 823c 6427 dfbd
00000210: 7814 653e 7c80 38bd 0bd9 d93d 1377 3e3e
00000220: c789 0a3d a2fb c1bd d64d bebc 1997 873e
00000230: f5e8 cb3e a6a2 bc3e f4e2 d83e 4039 933e
00000240: 603d d73d 2d5d d93d d95d 603c d907 8dbe
00000250: 5246 1abe 6b6c b1bd 2768 82be 0be8 933d
00000260: 79bd 7a3e 9509 b23e f6ba 353e 5bbf 423e
00000270: 1ddf 22be cf23 e93e ae1b aa3d 5274 883e
00000280: aa21 c1be 4fa7 8e3d 2afd ef3e 8226 533e
00000290: d6eb 14bd 7341 b33e 9ec0 55be ae43 903e
000002a0: 6942 63be fba3 0ebe 7fc4 5b3d c5d2 e1bc
000002b0: 6b47 c73e 275e 3c3e b121 cf3d d31d 80bd
000002c0: e008 2abc ddd9 913e cdf4 753e 2cc4 a4be
000002d0: 24c6 24bd 5964 e6bc 42fb e5be 3497 b63e
000002e0: 7129 7b3e aaab 5b3e 2948 823e 0ec6 3c3e
000002f0: f496 3bbd bad9 703e 94d5 98bd 9e26 f43e
00000300: 4f57 bdbe e4e5 593e 5c29 933e a40c 43be
00000310: 09c8 ecbe 9fd0 bc3e 0f1d cabe f856 81be
00000320: ca6c 853e abf3 2dbe 9629 b93e b441 f73d
00000330: c27a 973e 8d03 8b3d 0b9e 29bd f3b0 c43e
00000340: e390 963d 756f d83d e4b2 bb3e 29cc 463e
00000350: c60f 64bd e2d5 3e3e c6b2 903e 392f 7abe
00000360: a1ef 903e ee8b 3cbe facd 413e 32ef d73e
00000370: e62d a33d 4f08 67bd 773b 283e fe13 b73d
00000380: e093 513e f697 0fbd 4307 1e3e 4b11 dbbe
00000390: 57f9 6fbe 15c9 87be dc42 80be f539 2c3e
000003a0: 603d adbd 72de 1bbe a062 6cbe 1ef7 a03e
000003b0: 0931 ac3e 3d08 863d 123c 523e 9cc3 a73d
000003c0: 5626 e73d 9b38 0bbd c856 823e d316 8dbc
000003d0: 3864 30be 0f2d 9fbe f7fa bf3e ea85 e3bc
000003e0: 416d 513e 6565 fd3e c5fc 623e 6f10 c03e
000003f0: b432 583d f106 873d c3af fabd 58fd bf3e

l3.bias f4 [32]
0.050368346 -0.074614674 0.22766511 0.29202738 0.18562001 0.24857521 0.07526544 0.13294512
0.20489888 -0.13535528 0.29600787 0.15463458 0.01387774 0.16378465 0.27133814 -0.088779286
0.06880631 0.20817663 -0.16882539 0.10077991 0.15296727 -0.025502618 0.07078507 0.010610607
-0.1196179 0.17090854 0.21430628 0.2357715 0.15604503 -0.039265454 0.14641191 -0.1199303
00000000: 0a4f 4e3d 94cf 98bd 0b21 693e 9d84 953e
00000010: 2c13 3e3e 808a 7e3e c424 9a3d c422 083e
00000020: 03d1 513e 939a 0abe 588e 973e 8758 1e3e
00000030: 765f 633c 2ab7 273e d5ec 8a3e ead1 b5bd
00000040: 53ea 8c3d 412c 553e 90e0 2cbe b365 ce3d
00000050: 74a3 1c3e deea d0bc c3f7 903d 1dd8 2d3c
00000060: 3bfa f4bd a602 2f3e 1b73 5b3e 166e 713e
00000070: 45ca 1f3e d0d4 20bd 01ed 153e 049e f5bd

l4.weight f4 [32, 32]
0.082031384 0.14083739 -0.05681807 0.05314034 -0.025414644 -0.3732686 0.13692856 0.1370653
0.3358543 0.048190564 0.28090137 -0.1904784 -0.21454693 -0.11123333 0.30092335 0.3812101
-0.22900262 0.2623962 0.08561064 0.4287712 0.20869838 -0.0657435 0.100239985 0.28796205
0.32222214 0.4665051 0.08112885 0.13102542 -0.33030868 0.03262021 0.16619508 0.028154789
-0.005851874 0.1455804 0.028739361 0.231258 -0.14398421 -0.31596947 0.28176033 -0.010933061
0.23678647 -0.046234414 0.20755503 -0.09957116 -0.06473899 -0.24528842 0.01302641 0.28358588
0.04426453 0.24329057 0.039853632 0.31899616 0.3027227 0.120738484 0.07215356 -0.10211038
0.26672882 0.2603165 -0.14076522 0.24538466 -0.2662906 -0.2291655 -0.029168954 -0.061102796
-0.123979755 -0.058464043 0.26430842 0.10352576 -0.0469128 -0.10783024 0.31112394 -0.09909518
0.08355636 -0.011239558 0.23893322 0.23331578 0.086003505 0.18504742 -0.061424613 0.15544248
0.14539045 0.3952009 0.060918465 -0.22871572 0.3042576 0.35030407 -0.26702753 -0.3361243
0.30308056 0.29965878 0.3090815 0.16901451 0.26803854 -0.22215924 -0.1745616 0.024726443
0.16674188 -0.017503083 0.20635647 0.17047423 0.3101028 0.32094413 0.16032091 0.25041968
-0.081839144 0.11572881 -0.031110698 0.39554128 0.37741515 0.33929005 -0.041430105 -0.19051132
-0.03246667 -0.053817164 -0.08998765 -0.1365384 0.34908736 -0.058164325 0.001909083 -0.055628043
-0.09067347 -0.1439941 0.1574548 -0.24932364 0.1898147 -0.10693696 0.21482539 0.1627831
0.17123297 -0.1634389 -0.14030299 -0.19665472 0.13030817 0.1844726 0.22706348 0.11294401
0.05610791 -0.096169055 0.19135031 0.12641566 0.22606298 0.19771686 -0.13066329 0.0076088854
-0.13248208 -0.123578906 0.12446828 -0.13768052 0.009742132 -0.04526645 -0.11266623 0.058779992
0.09289516 0.11667628 -0.056716643 -0.20148636 -0.08331007 0.04452884 0.0640972 0.15514122
-0.012413582 -0.13686131 0.37386793 0.13838345 -0.036799837 0.097584635 0.1634594 -0.14959057
0.07649746 0.008822918 0.038380645 -0.14170782 0.009119208 0.07516689 -0.24845205 -0.03082448
0.34091064 0.2362866 -0.07138747 -0.031825073 -0.028417211 0.488549 -0.14763953 -0.036154088
0.30542654 0.29895684 0.13613182 0.4122785 0.353635 0.16394955 -0.35064512 -0.033919998
-0.12586567 -0.14142017 -0.12035778 -0.13318647 0.018700844 -0.022792948 0.119181395 -0.1296609
-0.12556627 0.015638813 -0.18107812 -0.09355227 0.15809862 0.08180298 0.003940767 -0.16223626
0.10116407 0.12947117 -0.0881432 -0.1586123 -0.06921341 -0.17514409 -0.021917954 0.015137843
-0.05021102 -0.13242714 0.0593833 0.09716256 0.1339879 0.09175549 0.101916835 0.16096215
-0.07691841 -0.06847166 0.09978617 0.20004416 0.081153095 0.07582081 0.04531378 0.09632115
0.03781387 0.12754746 -0.012553127 0.021743372 0.029249243 -0.114514515 -0.2475869 -0.25028452
-0.0028797719 0.25207353 -0.016063422 -0.1542768 -0.14251234 0.030635994 -0.063550815 0.09511937
0.15326238 -0.06572306 0.043196283 0.1536482 -0.07527043 0.07481697 -0.20321949 -0.17047529
00000000: 1200 a83d ad37 103e 11ba 68bd afa9 593d
00000010: 5f32 d0bc 101d bfbe 0037 0c3e d95a 0c3e
00000020: 18f5 ab3e 7863 453d 4ed2 8f3e c50c 43be
00000030: 31b2 5bbe 4dce e3bd a012 9a3e f82d c33e
00000040: aa7f 6abe cb58 863e a254 af3d e687 db3e
00000050: 07b5 553e 87a4 86bd 9f4a cd3d c36f 933e
00000060: 4dfa a43e c2d9 ee3e e226 a63d 872b 063e
00000070: 381e a9be c59c 053d 0b2f 2a3e dfa4 e63c
00000080: 14c1 bfbb 0713 153e cf6e eb3c e6ce 6c3e
00000090: 9970 13be c0c6 a1be e442 903e 9520 33bc
000000a0: 2778 723e 4c60 3dbd 4e89 543e f7eb cbbd
000000b0: e095 84bd e32c 7bbe b96c 553c 2b32 913e
000000c0: b94e 353d 2a21 793e 903d 233d 7753 a33e
000000d0: 78fe 9a3e bd45 f73d 3fc5 933d 3f1f d1bd
000000e0: ae90 883e 3448 853e c224 10be 1e46 7b3e
000000f0: 3e57 88be 5caa 6abe bbf3 eebc ed46 7abd
00000100: 19e9 fdbd fe77 6fbd 6f53 873e 5005 d43d
00000110: a327 40bd 1ad6 dcbd a34b 9f3e 6af2 cabd
00000120: 991f ab3d 2026 38bc e9aa 743e 55ea 6e3e
00000130: 9b22 b03d 127d 3d3e 6098 7bbd 502c 1f3e
00000140: 3ce1 143e c657 ca3e a485 793d 7434 6abe
00000150: a7c7 9b3e 0e5b b33e d5b7 88be 7c18 acbe
00000160: 602d 9b3e e06c 993e ee3f 9e3e 2412 2d3e
00000170: 593c 893e b67d 63be 47c0 32be 1c8f ca3c
00000180: 62be 2a3e a062 8fbc 1c4f 533e cc90 2e3e
00000190: cbc5 9e3e ca52 a43e 2a2b 243e 0237 803e
000001a0: 489b a7bd 3a03 ed3d dddb febc 6384 ca3e
000001b0: 8f3c c13e 6db7 ad3e 9db2 29bd 6615 43be
000001c0: c5fb 04bd 636f 5cbd 724b b8bd b9d0 0bbe
000001d0: 94bb b23e b73d 6ebd 323a fa3a 3bda 63bd
000001e0: 03b3 b9bd 3073 13be d53b 213e b24e 7fbe
000001f0: c95e 423e c401 dbbd 30fb 5b3e 9db0 263e
00000200: b257 2f3e 875c 27be 96ab 0fbe db5f 49be
00000210: 816f 053e 63e6 3c3e 5483 683e 304f e73d
00000220: 68d1 653d 48f4 c4bd 56f1 433e 1b73 013e
00000230: 0e7d 673e 4a76 4a3e 99cc 05be f553 f93b
00000240: 62a9 07be f016 fdbd 3ae9 fe3d 1ffc 0cbe
00000250: 779d 1f3c 5069 39bd 8dbd e6bd 4ac3 703d
00000260: d13f be3d f9f3 ee3d b64f 68bd 7152 4ebe
00000270: 789e aabd df63 363d 6545 833d 57dd 1e3e
00000280: 5662 4bbc 5f25 0cbe 9e6b bf3e 64b4 0d3e
00000290: 6dbb 16bd 74da c73d e761 273e 452e 19be
000002a0: b3aa 9c3d 008e 103c 0635 1d3d db1b 11be
000002b0: bb68 153c 19f1 993d 376a 7ebe 9f83 fcbc
000002c0: d78b ae3e 1df5 713e 9833 92bd 025b 02bd
000002d0: 36cb e8bc 1823 fa3e d12e 17be 4f16 14bd
000002e0: de60 9c3e df10 993e 2466 0b3e 2b16 d33e
000002f0: a60f b53e 64e2 273e c287 b3be b2ef 0abd
00000300: eee2 00be 73d0 10be 247e f6bd 0962 08be
00000310: 8332 993c 47b8 babc 6015 f43d d4c5 04be
00000320: 7294 00be f81c 803c 8b6c 39be 5598 bfbd
00000330: 9be4 213e 5288 a73d 8d21 813b 4321 26be
00000340: 1c2f cf3d 1794 043e 6c84 b4bd 436b 22be
00000350: c3bf 8dbd f958 33be 488d b3bc b704 783c
00000360: 12aa 4dbd fb9a 07be e73b 733d 2afd c63d
00000370: 2034 093e 4dea bb3d c6b9 d03d 43d3 243e
00000380: 6687 9dbd df3a 8cbd b15c cc3d 60d8 4c3e
00000390: 9833 a63d f147 9b3d f19a 393d 0644 c53d
000003a0: b7e2 1a3d cd9b 023e a1ab 4dbc 281f b23c
000003b0: 1c9c ef3c 9686 eabd 6c87 7dbe 4b25 80be
000003c0: 8eba 3cbb c80f 813e 7097 83bc bdfa 1dbe
000003d0: c1ee 11be 56f8 fa3c ee26 82bd f2cd c23d
000003e0: d0f0 1c3e d099 86bd 96ee 303d f455 1d3e
000003f0: 6227 9abd a439 993d c518 50be 1391 2ebe

l4.bias f4 [32]
0.13392949 0.20790945 0.15324597 0.15524334 -0.13391045 0.20572072 -0.04265563 -0.16373704
0.16546583 -0.040090106 -0.035219286 0.114880085 0.111903206 -0.067443684 0.16270663 0.15283865
0.007558955 0.032623753 0.03290925 -0.07523817 0.17058904 0.20930842 0.12111647 0.034455143
0.1818418 0.26604977 -0.15626171 0.15189016 -0.01056531 -0.030786192 -0.0951764 -0.15722153
00000000: d024 093e 37e6 543e 83ec 1c3e 1cf8 1e3e
00000010: d21f 09be 74a8 523e abb7 2ebd afaa 27be
00000020: e06f 293e 8635 24bd 1942 10bd 4046 eb3d
00000030: 822d e53d ea1f 8abd 919c 263e bc81 1c3e
00000040: 1cb1 f73b 7ca0 053d dacb 063d 7816 9abd
00000050: e5ae 2e3e f254 563e e90b f83d d620 0d3d
00000060: bd34 3a3e ad37 883e 1203 20be 1889 1b3e
00000070: 1f1a 2dbc 5333 fcbc d8eb c2bd aefe 20be

l5.weight f4 [17, 32]
-0.31069154 -0.03325283 0.22796988 0.107579716 0.22164957 0.11046251 0.12261178 0.03130737
0.20821911 0.14380893 -0.5138268 -0.21738762 0.17863669 -0.16921788 0.0037272905 -0.4008261
-0.12734106 -0.04509011 0.18578094 -0.14501458 -0.16696939 -0.2196399 0.24573015 -0.35567212
0.14873482 -0.22583005 -0.06705355 0.045068093 0.017292373 -0.33980268 -0.38189068 0.06322618
-0.3625514 -0.27148202 -0.021022031 0.25978965 0.07711117 0.019961512 0.08667986 0.009154165
0.2584755 0.073612794 -0.30451152 -0.0069241235 -0.014646897 0.078186974 -0.34692177 -0.07823875
0.10019034 0.0076211393 0.14590687 0.3053465 -0.032168776 -0.15256792 0.21329123 0.1313332
-0.12182782 -0.51268154 -0.15375058 -0.1376171 0.044234492 -0.5376254 -0.16318758 0.010867983
-0.35453942 -0.12851538 0.14173926 0.0026138888 -0.41483712 0.13672385 -0.07973478 0.2608761
-0.0093220435 0.06476836 -0.38317767 -0.10343172 0.14611466 0.017737523 -0.14509827 0.06066615
0.08730962 -0.061898887 -0.002867774 0.116859674 0.05157714 -0.30691126 -0.36480913 0.13321833
-0.29958516 -0.3679234 -0.114615574 0.04892276 -0.06811406 -0.03340514 -0.15361212 -0.1138886
0.2212486 -0.08719731 -0.29330963 -0.17413582 0.09676875 -0.4569926 -0.08798589 -0.15207234
-0.02224972 -0.27940038 0.087039255 0.22243759 -0.17873994 -0.043805093 0.24657539 0.17700748
-0.48821926 -0.08555793 -0.3675374 -0.08381819 -0.28850862 -0.062121443 0.15105508 -0.083745
0.17103763 0.17947634 0.09180136 -0.4703111 -0.07953968 -0.32822123 -0.0089722695 0.03895098
0.090903156 0.21585366 0.0054563694 -0.3524701 -0.40746167 -0.25161555 0.10839081 0.027576167
-0.36086553 -0.35519546 0.20332897 0.20181729 -0.3939835 -0.099618144 -0.00023246101 0.14326258
0.14228836 0.13234611 -0.20504722 -0.35902375 -0.027390108 0.036547653 -0.2313861 -0.21775264
0.16358252 0.042164825 -0.025904968 -0.021370098 -0.11886643 -0.29687127 0.006245905 -0.10554186
0.20507699 0.019364098 0.05650333 -0.067864284 0.12616254 0.16642997 -0.15273899 -0.28590456
-0.053099368 0.11375089 0.058088366 0.18658301 -0.44775748 -0.035345867 0.05591376 -0.40401903
-0.13032934 -0.08080923 -0.049198233 -0.5986116 -0.0065466277 0.09886854 0.25077063 -0.1485338
0.07296463 -0.22789538 -0.069610745 -0.43285444 0.06291594 -0.17725486 -0.05097445 0.0788327
0.14561011 0.25312087 -0.013630544 -0.4362994 0.15153185 0.024163987 0.12205849 -0.17866203
-0.040624022 -0.26447684 -0.0039203176 -0.06909473 -0.14869265 -0.08516318 0.038523436 -0.34001753
-0.5261396 0.028409839 -0.15426828 -0.22170544 -0.35833806 0.19714947 0.08966532 -0.30138797
0.12925242 0.079897724 -0.027251557 -0.48660842 -0.033286773 0.013250478 0.19832996 -0.099511005
0.15277624 0.009349125 0.032733414 -0.0474212 -0.20948298 0.08242607 -0.1764411 -0.049200557
-0.18716629 -0.1989027 -0.17078526 -0.3633744 -0.113452405 0.019653037 0.21240972 0.053173766
-0.09158961 -0.112479255 -0.118660405 -0.34905478 -0.05539741 0.06719138 0.07980843 -0.18808965
-0.10387035 0.2159515 -0.16132781 -0.019662652 0.0676488 0.015041641 -0.0058588744 -0.101748854
00000000: f612 9fbe 1f34 08bd f070 693e c152 dc3d
00000010: 1bf8 623e 2b3a e23d e31b fb3d 283c 003d
00000020: 6437 553e a642 133e 278a 03bf dc9a 5ebe
00000030: 89ec 363e 7447 2dbe 8f45 743b 1439 cdbe
00000040: b265 02be 68b0 38bd 5c3d 3e3e b47e 14be
00000050: 06fa 2abe 48e9 60be afa0 7b3e a81a b6be
00000060: f14d 183e fe3f 67be 5f53 89bd 5299 383d
00000070: bca8 8d3c 9efa adbe 2d87 c3be ba7c 813d
00000080: 56a0 b9be b1ff 8abe 6536 acbc 2603 853e
00000090: 76ec 9d3d 5386 a33c 3685 b13d 5afb 153c
000000a0: e756 843e 4ec2 963d efe8 9bbe c2e3 e2bb
000000b0: 8af9 6fbc 7e20 a03d bb9f b1be a33b a0bd
000000c0: 9830 cd3d c0ba f93b 9c68 153e 6056 9c3e
000000d0: 68c3 03bd c43a 1cbe 0469 5a3e 367c 063e
000000e0: dd80 f9bd 193f 03bf cb70 1dbe 7feb 0cbe
000000f0: 3a2f 353d d1a1 09bf a51a 27be a00f 323c
00000100: 3186 b5be 8999 03be 1924 113e c74d 2b3b
00000110: 8865 d4be 5601 0c3e fd4b a3bd 8d91 853e
00000120: 7cbb 18bc 46a5 843d dd2f c4be 02d4 d3bd
00000130: 159f 153e 484e 913c a494 14be 127d 783d
00000140: 63cf b23d b089 7dbd 44f1 3bbb 2054 ef3d
00000150: 8d42 533d 7923 9dbe 43c8 babe 636a 083e
00000160: 3a63 99be 7560 bcbe 92bb eabd 3b63 483d
00000170: 627f 8bbd d4d3 08bd 7f4c 1dbe 6d3e e9bd
00000180: fe8e 623e 8194 b2bd ae2c 96be a950 32be
00000190: b22e c63d effa e9be f231 b4bd dab8 1bbe
000001a0: 0b45 b6bc 910d 8fbe a341 b23d aec6 633e
000001b0: 9a07 37be f86c 33bd 427e 7c3e 7341 353e
000001c0: e0f7 f9be ff38 afbd dd2d bcbe dfa8 abbd
000001d0: 67b7 93be 0e73 7ebd 2fae 1a3e 8082 abbd
000001e0: 7d24 2f3e a5c8 373e 5a02 bc3d 9ecc f0be
000001f0: b3e5 a2bd 9d0c a8be 6d00 13bc 108b 1f3d
00000200: 6f2b ba3d be08 5d3e 58cb b23b f676 b4be
00000210: d19e d0be c1d3 80be 00fc dd3d 6ae7 e13c
00000220: 5ec3 b8be 2edc b5be 7835 503e 31a9 4e3e
00000230: 35b8 c9be 9904 ccbd c7c0 73b9 6db3 123e
00000240: 0ab4 113e bd85 073e e6f7 51be f6d1 b7be
00000250: 3861 e0bc feb2 153d 7af0 6cbe 8cfa 5ebe
00000260: 2d82 273e 06b5 2c3d a836 d4bc 5810 afbc
00000270: 3e70 f3bd 83ff 97be 73aa cc3b 5526 d8bd
00000280: b4ff 513e 75a1 9e3c 0970 673d 6efc 8abd
00000290: c130 013e 9e6c 2a3e 9c67 1cbe 1562 92be
000002a0: b97e 59bd 3af6 e83d 11ee 6d3d 9e0f 3f3e
000002b0: 7840 e5be d4c6 10bd d405 653d 95db cebe
000002c0: 0e75 05be 4f7f a5bd 1684 49bd 9c3e 19bf
000002d0: 1885 d6bb 977b ca3d 0265 803e 3f19 18be
000002e0: 7b6e 953d 685d 69be 1490 8ebd 199f ddbe
000002f0: 13da 803d 4c82 35be 96ca 50bd 0a73 a13d
00000300: d11a 153e 0f99 813e a552 5fbc a362 dfbe
00000310: 2a2b 1b3e 8ef3 c53c cdf9 f93d 2ef3 36be
00000320: 6065 26bd 8269 87be 0276 80bb 8a81 8dbd
00000330: e342 18be 096a aebd c0ca 1d3d c716 aebe
00000340: 16b1 06bf c0bb e83c 81f8 1dbe c006 63be
00000350: 1678 b7be 8de1 493e 74a2 b73d 864f 9abe
00000360: bf5a 043e 6ba1 a33d a83e dfbc bd24 f9be
00000370: b657 08bd 8818 593c 0217 4b3e 6dcc cbbd
00000380: 6071 1c3e 132d 193c 7913 063d bb3c 42bd
00000390: b582 56be 00cf a83d faac 34be 8686 49bd
000003a0: 85a8 3fbe 26ad 4bbe 55e2 2ebe 360c babe
000003b0: bc59 e8bd 68ff a03c ef81 593e bccc 593d
000003c0: 5593 bbbd 865b e6bd 3a04 f3bd 4fb7 b2be
000003d0: 65e8 62bd a29b 893d 9a72 a33d 939a 40be
000003e0: fab9 d4bd 6422 5d3e 1e33 25be 9213 a1bc
000003f0: 748b 8a3d 3771 763c cdfb bfbb b461 d0bd

l5.bias f4 [17]
-0.06999446 0.049693186 -0.052950937 0.104962885 0.03568805 -0.09017857 -0.07577133 -0.0016808358
0.088529624 0.011221113 0.024759158 -0.11866103 -0.1420942 -0.08785116 -0.07884592 -0.11473445
0.10048939
00000000: 4159 8fbd 158b 4b3d 15e3 58bd c8f6 d63d
00000010: a22d 123d 8baf b8bd 002e 9bbd 7e4f dcba
00000020: 054f b53d c2d8 373c b8d3 ca3c 8e04 f3bd
00000030: 2481 11be 4feb b3bd f879 a1bd e5f9 eabd
00000040: 62cd cd3d
